…
          "base_uri": "https://localhost:8080/"
        },
        "id": "0Om2lUVzCvea",
        "outputId": "226422f8-e0b7-4554-8a61-6b5303f48e90"
      },
      "execution_count": 20,
      "outputs": [
        {
          "output_type": "stream",
          "name": "stdout",
          "text": [
            "Model: \"sequential_2\"\n",
            "_________________________________________________________________\n",
            " Layer (type)                Output Shape              Param #   \n",
            "=================================================================\n",
            " conv2d_6 (Conv2D)           (None, 62, 62, 32)        896       \n",
            "                                                                 \n",
            " max_pooling2d_6 (MaxPoolin  (None, 31, 31, 32)        0         \n",
            " g2D)                                                            \n",
            "                                                                 \n",
            " conv2d_7 (Conv2D)           (None, 29, 29, 64)        18496     \n",
            "                                                                 \n",
            " max_pooling2d_7 (MaxPoolin  (None, 14, 14, 64)        0         \n",
            " g2D)                                                            \n",
            "                                                                 \n",
            " conv2d_8 (Conv2D)           (None, 12, 12, 128)       73856     \n",
            "                                                                 \n",
            " max_pooling2d_8 (MaxPoolin  (None, 6, 6, 128)         0         \n",
            " g2D)                                                            \n",
            "                                                                 \n",
            " flatten_2 (Flatten)         (None, 4608)              0         \n",
            "                                                                 \n",
            " dense_4 (Dense)             (None, 512)               2359808   \n",
            "                                                                 \n",
            " dropout_2 (Dropout)         (None, 512)               0         \n",
            "                                                                 \n",
            " dense_5 (Dense)             (None, 1)                 513       \n",
            "                                                                 \n",
            "=================================================================\n",
            "Total params: 2453569 (9.36 MB)\n",
            "Trainable params: 2453569 (9.36 MB)\n",
            "Non-trainable params: 0 (0.00 Byte)\n",
            "_________________________________________________________________\n"
…
